model.tflite (tflite, 2784 bytes, 3 tensors)

sequential/dense/MatMul;StatefulPartitionedCall/sequential/dense/MatMul i1 [16, 1] scale=0.0048195585 zero_point=0
000000 ad 60 4d f0 cd 1b 7f f0 40 14 0e 1e 69 27 ff 8b
       -0.40002334 0.4626776 0.371106 -0.077112935 -0.24579749 0.13012809 0.6120839 -0.077112935 0.30845174 0.09639117 0.06747382 0.14458676 0.5060536 0.18796279 -0.0048195585 -0.5638883

sequential/dense_1/MatMul;StatefulPartitionedCall/sequential/dense_1/MatMul i1 [16, 16] scale=0.008314175 zero_point=0
000000 01 0c bd d2 03 2e df 1c bf 25 19 dc 14 0a 3b 20
       0.008314175 0.0997701 -0.5570497 -0.38245204 0.024942525 0.38245204 -0.27436775 0.23279689 -0.54042137 0.30762446 0.20785436 -0.2993103 0.16628349 0.083141744 0.4905363 0.2660536
000010 fa 1c 7f f0 2c c7 02 18 11 0c de dc 1b ed ca e0
       -0.04988505 0.23279689 1.0559002 -0.1330268 0.3658237 -0.47390795 0.01662835 0.1995402 0.14134097 0.0997701 -0.28268194 -0.2993103 0.22448272 -0.15796931 -0.44896543 -0.2660536
000020 f6 f9 18 04 32 2d c7 f9 f4 15 33 f3 b3 09 4f ff
       -0.083141744 -0.058199223 0.1995402 0.0332567 0.41570872 0.37413785 -0.47390795 -0.058199223 -0.0997701 0.17459767 0.4240229 -0.10808427 -0.64019144 0.074827574 0.6568198 -0.008314175
000030 33 11 f8 1d f4 ff fb f0 f6 16 44 2b 31 24 1c d0
       0.4240229 0.14134097 -0.0665134 0.24111107 -0.0997701 -0.008314175 -0.041570872 -0.1330268 -0.083141744 0.18291184 0.5653639 0.3575095 0.40739456 0.2993103 0.23279689 -0.3990804
000040 14 eb 32 04 f7 e2 cf ff 08 02 f5 d2 07 26 00 e0
       0.16628349 -0.17459767 0.41570872 0.0332567 -0.074827574 -0.24942523 -0.40739456 -0.008314175 0.0665134 0.01662835 -0.09145592 -0.38245204 0.058199223 0.31593862 0.0 -0.2660536
000050 f0 38 8f 06 19 db fa 1a f4 24 fc 29 15 01 40 29
       -0.1330268 0.46559379 -0.9395017 0.04988505 0.20785436 -0.30762446 -0.04988505 0.21616854 -0.0997701 0.2993103 -0.0332567 0.34088117 0.17459767 0.008314175 0.5321072 0.34088117
000060 f9 d7 f8 d0 01 d7 22 0b ee 02 ec da f4 eb cf fb
       -0.058199223 -0.34088117 -0.0665134 -0.3990804 0.008314175 -0.34088117 0.28268194 0.09145592 -0.14965515 0.01662835 -0.16628349 -0.31593862 -0.0997701 -0.17459767 -0.40739456 -0.041570872
000070 0b 2e ea 16 e6 f7 ea f6 11 2c f1 f8 e1 c2 41 ec
       0.09145592 0.38245204 -0.18291184 0.18291184 -0.21616854 -0.074827574 -0.18291184 -0.083141744 0.14134097 0.3658237 -0.124712616 -0.0665134 -0.25773942 -0.51547885 0.54042137 -0.16628349
000080 fb 24 a5 d2 d6 1f ca 13 ce cb 3f 06 08 e7 71 1b
       -0.041570872 0.2993103 -0.7565899 -0.38245204 -0.34919533 0.25773942 -0.44896543 0.15796931 -0.41570872 -0.44065127 0.523793 0.04988505 0.0665134 -0.20785436 0.9395017 0.22448272
000090 1a e7 de d7 cc 28 d2 25 08 c4 35 0a b7 2c 3c 0f
       0.21616854 -0.20785436 -0.28268194 -0.34088117 -0.43233708 0.33256698 -0.38245204 0.30762446 0.0665134 -0.49885046 0.44065127 0.083141744 -0.6069347 0.3658237 0.49885046 0.124712616
0000a0 e0 25 ce 10 28 e2 11 dd f8 25 1f f9 2a d6 1c e1
       -0.2660536 0.30762446 -0.41570872 0.1330268 0.33256698 -0.24942523 0.14134097 -0.2909961 -0.0665134 0.30762446 0.25773942 -0.058199223 0.34919533 -0.34919533 0.23279689 -0.25773942
0000b0 05 dd f2 e5 2c 32 e0 06 26 38 38 da b5 1b 1f cf
       0.041570872 -0.2909961 -0.116398446 -0.22448272 0.3658237 0.41570872 -0.2660536 0.04988505 0.31593862 0.46559379 0.46559379 -0.31593862 -0.6235631 0.22448272 0.25773942 -0.40739456
0000c0 05 28 23 1f 1e 20 30 e9 33 cd b0 02 09 12 e8 1f
       0.041570872 0.33256698 0.2909961 0.25773942 0.24942523 0.2660536 0.3990804 -0.19122602 0.4240229 -0.4240229 -0.66513395 0.01662835 0.074827574 0.14965515 -0.1995402 0.25773942
0000d0 05 22 ff 0a d6 0a 0c d5 cd e9 07 c8 f0 fc fa 0d
       0.041570872 0.28268194 -0.008314175 0.083141744 -0.34919533 0.083141744 0.0997701 -0.3575095 -0.4240229 -0.19122602 0.058199223 -0.46559379 -0.1330268 -0.0332567 -0.04988505 0.10808427
0000e0 e9 33 93 e7 2e 0d c2 05 e4 02 41 1f e1 c2 72 e4
       -0.19122602 0.4240229 -0.90624505 -0.20785436 0.38245204 0.10808427 -0.51547885 0.041570872 -0.23279689 0.01662835 0.54042137 0.25773942 -0.25773942 -0.51547885 0.9478159 -0.23279689
0000f0 d7 1c ef 10 33 1d 22 10 de f9 fc ea f5 dc 1a 1c
       -0.34088117 0.23279689 -0.14134097 0.1330268 0.4240229 0.24111107 0.28268194 0.1330268 -0.28268194 -0.058199223 -0.0332567 -0.18291184 -0.09145592 -0.2993103 0.21616854 0.23279689

sequential/dense_2/MatMul;StatefulPartitionedCall/sequential/dense_2/MatMul i1 [1, 16] scale=0.0074917227 zero_point=0
000000 6c 54 b8 e9 0d 93 cd 41 68 96 f8 81 4a 50 6a ea
       0.80910605 0.6293047 -0.53940403 -0.17230962 0.097392395 -0.81659776 -0.38207787 0.48696196 0.77913916 -0.7941226 -0.05993378 -0.9514488 0.55438745 0.5993378 0.7941226 -0.1648179
